…
wandb: WARNING Path /projects/prjs1017/Gating/wandb/wandb/ wasn't writable, using system temp directory.
wandb: Tracking run with wandb version 0.19.8
wandb: Run data is saved locally in /scratch-local/fdsousahorta.11789400/wandb/run-20250512_210510-bctk8uw7
wandb: Run `wandb offline` to turn off syncing.
wandb: Syncing run gemma2b_vector_individual_gate_1
wandb: ⭐️ View project at https://wandb.ai/filipelaitenberger/gateskip
wandb: 🚀 View run at https://wandb.ai/filipelaitenberger/gateskip/runs/bctk8uw7
DefaultLightningModule(
  (model): Gemma2ForCausalLM(
    (model): Gemma2Model(
      (embed_tokens): Embedding(256000, 2304, padding_idx=0)
      (layers): ModuleList(
        (0-25): 26 x Gemma2DecoderLayer(
          (self_attn): GatedWrapper(
            (module): Gemma2Attention(
              (q_proj): Linear(in_features=2304, out_features=2048, bias=False)
              (k_proj): Linear(in_features=2304, out_features=1024, bias=False)
              (v_proj): Linear(in_features=2304, out_features=1024, bias=False)
              (o_proj): Linear(in_features=2048, out_features=2304, bias=False)
              (rotary_emb): Gemma2RotaryEmbedding()
            )
            (gate): GateLayer(
              (gate): Linear(in_features=2304, out_features=2304, bias=True)
            )
          )
          (mlp): GatedWrapper(
            (module): Gemma2MLP(
              (gate_proj): Linear(in_features=2304, out_features=9216, bias=False)
              (up_proj): Linear(in_features=2304, out_features=9216, bias=False)
              (down_proj): Linear(in_features=9216, out_features=2304, bias=False)
              (act_fn): PytorchGELUTanh()
            )
            (gate): GateLayer(
              (gate): Linear(in_features=2304, out_features=2304, bias=True)
            )
          )
          (input_layernorm): Gemma2RMSNorm()
          (post_attention_layernorm): Gemma2RMSNorm()
          (pre_feedforward_layernorm): Gemma2RMSNorm()
          (post_feedforward_layernorm): Gemma2RMSNorm()
        )
      )
      (norm): Gemma2RMSNorm()
    )
    (lm_head): Linear(in_features=2304, out_features=256000, bias=False)
    (gating): ModelGating()
  )
)
DefaultLightningModule(
  (model): Gemma2ForCausalLM(
    (model): Gemma2Model(
      (embed_tokens): Embedding(256000, 2304, padding_idx=0)
      (layers): ModuleList(
        (0-25): 26 x Gemma2DecoderLayer(
          (self_attn): GatedWrapper(
            (module): Gemma2Attention(
              (q_proj): Linear(in_features=2304, out_features=2048, bias=False)
              (k_proj): Linear(in_features=2304, out_features=1024, bias=False)
              (v_proj): Linear(in_features=2304, out_features=1024, bias=False)
              (o_proj): Linear(in_features=2048, out_features=2304, bias=False)
              (rotary_emb): Gemma2RotaryEmbedding()
            )
            (gate): GateLayer(
              (gate): Linear(in_features=2304, out_features=2304, bias=True)
            )
          )
          (mlp): GatedWrapper(
            (module): Gemma2MLP(
              (gate_proj): Linear(in_features=2304, out_features=9216, bias=False)
              (up_proj): Linear(in_features=2304, out_features=9216, bias=False)
              (down_proj): Linear(in_features=9216, out_features=2304, bias=False)
              (act_fn): PytorchGELUTanh()
            )
            (gate): GateLayer(
              (gate): Linear(in_features=2304, out_features=2304, bias=True)
            )
          )
          (input_layernorm): Gemma2RMSNorm()
          (post_attention_layernorm): Gemma2RMSNorm()
          (pre_feedforward_layernorm): Gemma2RMSNorm()
          (post_feedforward_layernorm): Gemma2RMSNorm()
        )
      )
      (norm): Gemma2RMSNorm()
    )
    (lm_head): Linear(in_features=2304, out_features=256000, bias=False)
    (gating): ModelGating()
  )
)
Saving the dataset (0/1 shards):   0%|          | 0/15493 [00:00<?, ? examples/s]Saving the dataset (0/1 shards):  77%|███████▋  | 12000/15493 [00:00<00:00, 106806.14 examples/s]Saving the dataset (1/1 shards): 100%|██████████| 15493/15493 [00:00<00:00, 106806.14 examples/s]Saving the dataset (1/1 shards): 100%|██████████| 15493/15493 [00:00<00:00, 113382.51 examples/s]
…
