…
LOCAL_RANK: 0 - CUDA_VISIBLE_DEVICES: [0]

  | Name  | Type             | Params | Mode 
---------------------------------------------------
0 | model | LlamaForCausalLM | 1.4 B  | train
---------------------------------------------------
1.4 B     Trainable params
0         Non-trainable params
1.4 B     Total params
5,480.391 Total estimated model params size (MB)
328       Modules in train mode
0         Modules in eval mode
SLURM auto-requeueing enabled. Setting signal handlers.
Using pretrained tokenizer from meta-llama/Llama-3.2-1B
DefaultLightningModule(
  (model): LlamaForCausalLM(
    (model): LlamaModel(
      (embed_tokens): Embedding(128256, 2048)
      (layers): ModuleList(
        (0-15): 16 x LlamaDecoderLayer(
          (self_attn): GatedWrapper(
            (module): LlamaAttention(
              (q_proj): Linear(in_features=2048, out_features=2048, bias=False)
              (k_proj): Linear(in_features=2048, out_features=512, bias=False)
              (v_proj): Linear(in_features=2048, out_features=512, bias=False)
              (o_proj): Linear(in_features=2048, out_features=2048, bias=False)
              (rotary_emb): LlamaRotaryEmbedding()
            )
            (gate): GateLayer(
              (gate): Linear(in_features=2048, out_features=2048, bias=True)
            )
          )
          (mlp): GatedWrapper(
            (module): LlamaMLP(
              (gate_proj): Linear(in_features=2048, out_features=8192, bias=False)
              (up_proj): Linear(in_features=2048, out_features=8192, bias=False)
              (down_proj): Linear(in_features=8192, out_features=2048, bias=False)
              (act_fn): SiLU()
            )
            (gate): GateLayer(
              (gate): Linear(in_features=2048, out_features=2048, bias=True)
            )
          )
          (input_layernorm): LlamaRMSNorm()
          (post_attention_layernorm): LlamaRMSNorm()
        )
      )
      (norm): LlamaRMSNorm()
      (rotary_emb): LlamaRotaryEmbedding()
    )
    (lm_head): Linear(in_features=2048, out_features=128256, bias=False)
    (gating): ModelGating()
  )
)
DefaultLightningModule(
  (model): LlamaForCausalLM(
    (model): LlamaModel(
      (embed_tokens): Embedding(128256, 2048)
      (layers): ModuleList(
        (0-15): 16 x LlamaDecoderLayer(
          (self_attn): GatedWrapper(
            (module): LlamaAttention(
              (q_proj): Linear(in_features=2048, out_features=2048, bias=False)
              (k_proj): Linear(in_features=2048, out_features=512, bias=False)
              (v_proj): Linear(in_features=2048, out_features=512, bias=False)
              (o_proj): Linear(in_features=2048, out_features=2048, bias=False)
              (rotary_emb): LlamaRotaryEmbedding()
            )
            (gate): GateLayer(
              (gate): Linear(in_features=2048, out_features=2048, bias=True)
            )
          )
          (mlp): GatedWrapper(
            (module): LlamaMLP(
              (gate_proj): Linear(in_features=2048, out_features=8192, bias=False)
              (up_proj): Linear(in_features=2048, out_features=8192, bias=False)
              (down_proj): Linear(in_features=8192, out_features=2048, bias=False)
              (act_fn): SiLU()
            )
            (gate): GateLayer(
              (gate): Linear(in_features=2048, out_features=2048, bias=True)
            )
          )
          (input_layernorm): LlamaRMSNorm()
          (post_attention_layernorm): LlamaRMSNorm()
        )
      )
      (norm): LlamaRMSNorm()
      (rotary_emb): LlamaRotaryEmbedding()
    )
    (lm_head): Linear(in_features=2048, out_features=128256, bias=False)
    (gating): ModelGating()
  )
)
The attention mask and the pad token id were not set. As a consequence, you may observe unexpected behavior. Please pass your input's `attention_mask` to obtain reliable results.
Setting `pad_token_id` to `eos_token_id`:128001 for open-end generation.
The attention mask is not set and cannot be inferred from input because pad token is same as eos token.As a consequence, you may observe unexpected behavior. Please pass your input's `attention_mask` to obtain reliable results.
…
