…
_attn.gate.gate.2.weight', 'model.layers.15.self_attn.gate.gate.2.bias', 'model.layers.15.mlp.module.gate_proj.weight', 'model.layers.15.mlp.module.up_proj.weight', 'model.layers.15.mlp.module.down_proj.weight', 'model.layers.15.mlp.gate.gate.0.weight', 'model.layers.15.mlp.gate.gate.0.bias', 'model.layers.15.mlp.gate.gate.2.weight', 'model.layers.15.mlp.gate.gate.2.bias']
Loading from checkpoint /projects/prjs1017/Gating/llama1b_vector_individual_mlp_gate_1.pt
Missing keys: []
Unexpected keys: []
DefaultLightningModule(
  (model): LlamaForCausalLM(
    (model): LlamaModel(
      (embed_tokens): Embedding(128256, 2048)
      (layers): ModuleList(
        (0-15): 16 x LlamaDecoderLayer(
          (self_attn): GatedWrapper(
            (module): LlamaAttention(
              (q_proj): Linear(in_features=2048, out_features=2048, bias=False)
              (k_proj): Linear(in_features=2048, out_features=512, bias=False)
              (v_proj): Linear(in_features=2048, out_features=512, bias=False)
              (o_proj): Linear(in_features=2048, out_features=2048, bias=False)
              (rotary_emb): LlamaRotaryEmbedding()
            )
            (gate): GateLayer(
              (gate): Sequential(
                (0): Linear(in_features=2048, out_features=4096, bias=True)
                (1): ReLU()
                (2): Linear(in_features=4096, out_features=2048, bias=True)
              )
            )
          )
          (mlp): GatedWrapper(
            (module): LlamaMLP(
              (gate_proj): Linear(in_features=2048, out_features=8192, bias=False)
              (up_proj): Linear(in_features=2048, out_features=8192, bias=False)
              (down_proj): Linear(in_features=8192, out_features=2048, bias=False)
              (act_fn): SiLU()
            )
            (gate): GateLayer(
              (gate): Sequential(
                (0): Linear(in_features=2048, out_features=4096, bias=True)
                (1): ReLU()
                (2): Linear(in_features=4096, out_features=2048, bias=True)
              )
            )
          )
          (input_layernorm): LlamaRMSNorm()
          (post_attention_layernorm): LlamaRMSNorm()
        )
      )
      (norm): LlamaRMSNorm()
      (rotary_emb): LlamaRotaryEmbedding()
    )
    (lm_head): Linear(in_features=2048, out_features=128256, bias=False)
    (gating): ModelGating()
  )
)
Loading from checkpoint /projects/prjs1017/Gating/llama1b_vector_individual_mlp_gate_1.pt
Missing keys: []
Unexpected keys: []
srun: Job step aborted: Waiting up to 32 seconds for job step to finish.
slurmstepd: error: *** JOB 11789396 ON gcn98 CANCELLED AT 2025-05-12T21:44:46 ***
running full eval:   0%|        
…
