…
wandb: WARNING Path /projects/prjs1017/Gating/wandb/wandb/ wasn't writable, using system temp directory.
wandb: Tracking run with wandb version 0.19.8
wandb: Run data is saved locally in /scratch-local/fdsousahorta.11789389/wandb/run-20250512_204554-l0etl6kx
wandb: Run `wandb offline` to turn off syncing.
wandb: Syncing run llama1b_scalar_individual_gate_1
wandb: ⭐️ View project at https://wandb.ai/filipelaitenberger/gateskip
wandb: 🚀 View run at https://wandb.ai/filipelaitenberger/gateskip/runs/l0etl6kx
DefaultLightningModule(
  (model): LlamaForCausalLM(
    (model): LlamaModel(
      (embed_tokens): Embedding(128256, 2048)
      (layers): ModuleList(
        (0-15): 16 x LlamaDecoderLayer(
          (self_attn): GatedWrapper(
            (module): LlamaAttention(
              (q_proj): Linear(in_features=2048, out_features=2048, bias=False)
              (k_proj): Linear(in_features=2048, out_features=512, bias=False)
              (v_proj): Linear(in_features=2048, out_features=512, bias=False)
              (o_proj): Linear(in_features=2048, out_features=2048, bias=False)
              (rotary_emb): LlamaRotaryEmbedding()
            )
            (gate): GateLayer(
              (gate): Linear(in_features=2048, out_features=1, bias=True)
            )
          )
          (mlp): GatedWrapper(
            (module): LlamaMLP(
              (gate_proj): Linear(in_features=2048, out_features=8192, bias=False)
              (up_proj): Linear(in_features=2048, out_features=8192, bias=False)
              (down_proj): Linear(in_features=8192, out_features=2048, bias=False)
              (act_fn): SiLU()
            )
            (gate): GateLayer(
              (gate): Linear(in_features=2048, out_features=1, bias=True)
            )
          )
          (input_layernorm): LlamaRMSNorm()
          (post_attention_layernorm): LlamaRMSNorm()
        )
      )
      (norm): LlamaRMSNorm()
      (rotary_emb): LlamaRotaryEmbedding()
    )
    (lm_head): Linear(in_features=2048, out_features=128256, bias=False)
    (gating): ModelGating()
  )
)
DefaultLightningModule(
  (model): LlamaForCausalLM(
    (model): LlamaModel(
      (embed_tokens): Embedding(128256, 2048)
      (layers): ModuleList(
        (0-15): 16 x LlamaDecoderLayer(
          (self_attn): GatedWrapper(
            (module): LlamaAttention(
              (q_proj): Linear(in_features=2048, out_features=2048, bias=False)
              (k_proj): Linear(in_features=2048, out_features=512, bias=False)
              (v_proj): Linear(in_features=2048, out_features=512, bias=False)
              (o_proj): Linear(in_features=2048, out_features=2048, bias=False)
              (rotary_emb): LlamaRotaryEmbedding()
            )
            (gate): GateLayer(
              (gate): Linear(in_features=2048, out_features=1, bias=True)
            )
          )
          (mlp): GatedWrapper(
            (module): LlamaMLP(
              (gate_proj): Linear(in_features=2048, out_features=8192, bias=False)
              (up_proj): Linear(in_features=2048, out_features=8192, bias=False)
              (down_proj): Linear(in_features=8192, out_features=2048, bias=False)
              (act_fn): SiLU()
            )
            (gate): GateLayer(
              (gate): Linear(in_features=2048, out_features=1, bias=True)
            )
          )
          (input_layernorm): LlamaRMSNorm()
          (post_attention_layernorm): LlamaRMSNorm()
        )
      )
      (norm): LlamaRMSNorm()
      (rotary_emb): LlamaRotaryEmbedding()
    )
    (lm_head): Linear(in_features=2048, out_features=128256, bias=False)
    (gating): ModelGating()
  )
)
Saving the dataset (0/1 shards):   0%|          | 0/15493 [00:00<?, ? examples/s]Saving the dataset (0/1 shards):  77%|███████▋  | 12000/15493 [00:00<00:00, 111708.35 examples/s]Saving the dataset (1/1 shards): 100%|██████████| 15493/15493 [00:00<00:00, 111708.35 examples/s]Saving the dataset (1/1 shards): 100%|██████████| 15493/15493 [00:00<00:00, 118219.80 examples/s]
…
