…
v_proj.weight', 'model.layers.15.self_attn.module.o_proj.weight', 'model.layers.15.self_attn.gate.gate.weight', 'model.layers.15.self_attn.gate.gate.bias', 'model.layers.15.mlp.module.gate_proj.weight', 'model.layers.15.mlp.module.up_proj.weight', 'model.layers.15.mlp.module.down_proj.weight', 'model.layers.15.mlp.gate.gate.weight', 'model.layers.15.mlp.gate.gate.bias']
Loading from checkpoint /projects/prjs1017/Gating/llama1b_vector_individual_before_gate_1.pt
Missing keys: []
Unexpected keys: []
DefaultLightningModule(
  (model): LlamaForCausalLM(
    (model): LlamaModel(
      (embed_tokens): Embedding(128256, 2048)
      (layers): ModuleList(
        (0-15): 16 x LlamaDecoderLayer(
          (self_attn): GatedWrapper(
            (module): LlamaAttention(
              (q_proj): Linear(in_features=2048, out_features=2048, bias=False)
              (k_proj): Linear(in_features=2048, out_features=512, bias=False)
              (v_proj): Linear(in_features=2048, out_features=512, bias=False)
              (o_proj): Linear(in_features=2048, out_features=2048, bias=False)
              (rotary_emb): LlamaRotaryEmbedding()
            )
            (gate): GateLayer(
              (gate): Linear(in_features=2048, out_features=2048, bias=True)
            )
          )
          (mlp): GatedWrapper(
            (module): LlamaMLP(
              (gate_proj): Linear(in_features=2048, out_features=8192, bias=False)
              (up_proj): Linear(in_features=2048, out_features=8192, bias=False)
              (down_proj): Linear(in_features=8192, out_features=2048, bias=False)
              (act_fn): SiLU()
            )
            (gate): GateLayer(
              (gate): Linear(in_features=2048, out_features=2048, bias=True)
            )
          )
          (input_layernorm): LlamaRMSNorm()
          (post_attention_layernorm): LlamaRMSNorm()
        )
      )
      (norm): LlamaRMSNorm()
      (rotary_emb): LlamaRotaryEmbedding()
    )
    (lm_head): Linear(in_features=2048, out_features=128256, bias=False)
    (gating): ModelGating()
  )
)
Loading from checkpoint /projects/prjs1017/Gating/llama1b_vector_individual_before_gate_1.pt
Missing keys: []
Unexpected keys: []
running full eval:   0%|          | 0/8 [00:00<?, ?it/s]running full eval:  12%|█▎        | 1/8 [01:39<11:39, 99.91s/it]running full eval:  25%|██▌       | 2/8 [02:51<08:20, 83.36s/i
…
