…
.mlp.up_proj.weight', 'model.layers.15.module.mlp.down_proj.weight', 'model.layers.15.module.input_layernorm.weight', 'model.layers.15.module.post_attention_layernorm.weight', 'model.layers.15.router.weight', 'model.layers.15.router.bias', 'model.layers.15.predictor.0.weight', 'model.layers.15.predictor.0.bias', 'model.layers.15.predictor.2.weight', 'model.layers.15.predictor.2.bias']
Loading from checkpoint /projects/prjs1017/Gating/llama1b-csqa-gsm8k-mod_1.pt
Missing keys: []
Unexpected keys: []
DefaultLightningModule(
  (model): LlamaForCausalLM(
    (model): LlamaModel(
      (embed_tokens): Embedding(128256, 2048)
      (layers): ModuleList(
        (0-15): 16 x ModWrapper(
          (module): LlamaDecoderLayer(
            (self_attn): LlamaAttention(
              (q_proj): Linear(in_features=2048, out_features=2048, bias=False)
              (k_proj): Linear(in_features=2048, out_features=512, bias=False)
              (v_proj): Linear(in_features=2048, out_features=512, bias=False)
              (o_proj): Linear(in_features=2048, out_features=2048, bias=False)
              (rotary_emb): LlamaRotaryEmbedding()
            )
            (mlp): LlamaMLP(
              (gate_proj): Linear(in_features=2048, out_features=8192, bias=False)
              (up_proj): Linear(in_features=2048, out_features=8192, bias=False)
              (down_proj): Linear(in_features=8192, out_features=2048, bias=False)
              (act_fn): SiLU()
            )
            (input_layernorm): LlamaRMSNorm()
            (post_attention_layernorm): LlamaRMSNorm()
          )
          (router): Linear(in_features=2048, out_features=1, bias=True)
          (predictor): Sequential(
            (0): Linear(in_features=2048, out_features=1024, bias=True)
            (1): SiLU()
            (2): Linear(in_features=1024, out_features=1, bias=True)
          )
        )
      )
      (norm): LlamaRMSNorm()
      (rotary_emb): LlamaRotaryEmbedding()
    )
    (lm_head): Linear(in_features=2048, out_features=128256, bias=False)
    (mod): ModelMod()
  )
)
Loading from checkpoint /projects/prjs1017/Gating/llama1b-csqa-gsm8k-mod_1.pt
Missing keys: []
Unexpected keys: []
running full eval:   0%|          | 0/15 [00:00<?, ?it/s]`pretrained` model kwarg is not of type `str`. Many other model arguments may be ignored. Please do not launch via accelerate or use `parallelize=True` if passing an existing model this way.
…
