…
weight', 'model.layers.14.self_attn.v_proj.weight', 'model.layers.14.self_attn.o_proj.weight', 'model.layers.14.mlp.gate_proj.weight', 'model.layers.14.mlp.up_proj.weight', 'model.layers.14.mlp.down_proj.weight', 'model.layers.15.self_attn.q_proj.weight', 'model.layers.15.self_attn.k_proj.weight', 'model.layers.15.self_attn.v_proj.weight', 'model.layers.15.self_attn.o_proj.weight', 'model.layers.15.mlp.gate_proj.weight', 'model.layers.15.mlp.up_proj.weight', 'model.layers.15.mlp.down_proj.weight']
DefaultLightningModule(
  (model): LlamaForCausalLM(
    (model): LlamaModel(
      (embed_tokens): Embedding(128256, 2048)
      (layers): ModuleList(
        (0-15): 16 x LlamaDecoderLayer(
          (self_attn): GatedWrapper(
            (module): LlamaAttention(
              (q_proj): Linear(in_features=2048, out_features=2048, bias=False)
              (k_proj): Linear(in_features=2048, out_features=512, bias=False)
              (v_proj): Linear(in_features=2048, out_features=512, bias=False)
              (o_proj): Linear(in_features=2048, out_features=2048, bias=False)
              (rotary_emb): LlamaRotaryEmbedding()
            )
            (gate): GateLayer(
              (gate): Linear(in_features=2048, out_features=2048, bias=True)
            )
          )
          (mlp): GatedWrapper(
            (module): LlamaMLP(
              (gate_proj): Linear(in_features=2048, out_features=8192, bias=False)
              (up_proj): Linear(in_features=2048, out_features=8192, bias=False)
              (down_proj): Linear(in_features=8192, out_features=2048, bias=False)
              (act_fn): SiLU()
            )
            (gate): GateLayer(
              (gate): Linear(in_features=2048, out_features=2048, bias=True)
            )
          )
          (input_layernorm): LlamaRMSNorm()
          (post_attention_layernorm): LlamaRMSNorm()
        )
      )
      (norm): LlamaRMSNorm()
      (rotary_emb): LlamaRotaryEmbedding()
    )
    (lm_head): Linear(in_features=2048, out_features=128256, bias=False)
    (gating): ModelGating()
  )
)
Loading from checkpoint /projects/prjs1017/Gating/llama1b_baseline_1.pt
Missing keys: ['model.model.layers.0.self_attn.module.q_proj.weight', 'model.model.layers.0.self_attn.module.k_proj.weight', 'model.model.layers.0.self_attn.module.v_proj.weight', 'model.model.layers.0.self_attn.module.o_proj.weight', 'model.m
…
